…
2025-04-24 22:47:49 [INFO]: graph_layers: 2
2025-04-24 22:47:49 [INFO]: linear_hidden: [64]
2025-04-24 22:47:49 [INFO]: lr: 0.001
2025-04-24 22:47:49 [INFO]: weight_decay: 0.0001
2025-04-24 22:47:49 [INFO]: feat_drop: 0.3
2025-04-24 22:47:49 [INFO]: patience: 10
2025-04-24 22:47:49 [INFO]: ft_num: 5
2025-04-24 22:47:49 [INFO]: aggregator: mean
2025-04-24 22:47:49 [INFO]: MainModel(
  (encoders): ModuleDict(
    (metric): Encoder(
      (graph_encoder): SAGEEncoder(
        (sage_layers): ModuleList(
          (0): SAGEConv(
            (feat_drop): Dropout(p=0.3, inplace=False)
            (fc_neigh): Linear(in_features=128, out_features=64, bias=False)
            (fc_self): Linear(in_features=128, out_features=64, bias=False)
          )
          (1): SAGEConv(
            (feat_drop): Dropout(p=0.3, inplace=False)
            (fc_neigh): Linear(in_features=64, out_features=32, bias=False)
            (fc_self): Linear(in_features=64, out_features=32, bias=False)
          )
        )
        (pool): MaxPooling()
      )
    )
    (trace): Encoder(
      (graph_encoder): SAGEEncoder(
        (sage_layers): ModuleList(
          (0): SAGEConv(
            (feat_drop): Dropout(p=0.3, inplace=False)
            (fc_neigh): Linear(in_features=128, out_features=64, bias=False)
            (fc_self): Linear(in_features=128, out_features=64, bias=False)
          )
          (1): SAGEConv(
            (feat_drop): Dropout(p=0.3, inplace=False)
            (fc_neigh): Linear(in_features=64, out_features=32, bias=False)
            (fc_self): Linear(in_features=64, out_features=32, bias=False)
          )
        )
        (pool): MaxPooling()
      )
    )
    (log): Encoder(
      (graph_encoder): SAGEEncoder(
        (sage_layers): ModuleList(
          (0): SAGEConv(
            (feat_drop): Dropout(p=0.3, inplace=False)
            (fc_neigh): Linear(in_features=128, out_features=64, bias=False)
            (fc_self): Linear(in_features=128, out_features=64, bias=False)
          )
          (1): SAGEConv(
            (feat_drop): Dropout(p=0.3, inplace=False)
            (fc_neigh): Linear(in_features=64, out_features=32, bias=False)
            (fc_self): Linear(in_features=64, out_features=32, bias=False)
          )
        )
        (pool): MaxPooling()
      )
    )
  )
  (locator): Voter(
    (net): FullyConnected(
      (net): Sequential(
        (0): Linear(in_features=96, out_features=64, bias=True)
        (1): ReLU()
        (2): Linear(in_features=64, out_features=1, bias=True)
      )
    )
  )
  (typeClassifier): Classifier(
    (net): FullyConnected(
      (net): Sequential(
        (0): Linear(in_features=96, out_features=64, bias=True)
        (1): ReLU()
        (2): Linear(in_features=64, out_features=5, bias=True)
      )
    )
  )
)
2025-04-24 22:47:49 [INFO]: Start training for 500 epochs.
2025-04-24 22:47:49 [DEBUG]: con_loss: 2.716, RCA_loss: 3.432, TC_loss: 2.401
2025-04-24 22:47:50 [INFO]: Epoch 0 done. Loss: 7.047, Time per epoch: 0.796[s]
2025-04-24 22:47:50 [DEBUG]: con_loss: 2.726, RCA_loss: 3.211, TC_loss: 2.215
2025-04-24 22:47:50 [INFO]: Epoch 1 done. Loss: 6.849, Time per epoch: 0.454[s]
…
