…
2025-03-08 10:00:55 [INFO]: graph_layers: 2
2025-03-08 10:00:55 [INFO]: linear_hidden: [64]
2025-03-08 10:00:55 [INFO]: lr: 0.001
2025-03-08 10:00:55 [INFO]: weight_decay: 0.0001
2025-03-08 10:00:55 [INFO]: feat_drop: 0
2025-03-08 10:00:55 [INFO]: patience: 10
2025-03-08 10:00:55 [INFO]: ft_num: 5
2025-03-08 10:00:55 [INFO]: aggregator: mean
2025-03-08 10:00:55 [INFO]: MainModel(
  (encoders): ModuleDict(
    (metric): Encoder(
      (graph_encoder): SAGEEncoder(
        (sage_layers): ModuleList(
          (0): SAGEConv(
            (feat_drop): Dropout(p=0, inplace=False)
            (fc_neigh): Linear(in_features=128, out_features=64, bias=False)
            (fc_self): Linear(in_features=128, out_features=64, bias=False)
          )
          (1): SAGEConv(
            (feat_drop): Dropout(p=0, inplace=False)
            (fc_neigh): Linear(in_features=64, out_features=32, bias=False)
            (fc_self): Linear(in_features=64, out_features=32, bias=False)
          )
        )
        (pool): MaxPooling()
      )
    )
    (trace): Encoder(
      (graph_encoder): SAGEEncoder(
        (sage_layers): ModuleList(
          (0): SAGEConv(
            (feat_drop): Dropout(p=0, inplace=False)
            (fc_neigh): Linear(in_features=128, out_features=64, bias=False)
            (fc_self): Linear(in_features=128, out_features=64, bias=False)
          )
          (1): SAGEConv(
            (feat_drop): Dropout(p=0, inplace=False)
            (fc_neigh): Linear(in_features=64, out_features=32, bias=False)
            (fc_self): Linear(in_features=64, out_features=32, bias=False)
          )
        )
        (pool): MaxPooling()
      )
    )
    (log): Encoder(
      (graph_encoder): SAGEEncoder(
        (sage_layers): ModuleList(
          (0): SAGEConv(
            (feat_drop): Dropout(p=0, inplace=False)
            (fc_neigh): Linear(in_features=128, out_features=64, bias=False)
            (fc_self): Linear(in_features=128, out_features=64, bias=False)
          )
          (1): SAGEConv(
            (feat_drop): Dropout(p=0, inplace=False)
            (fc_neigh): Linear(in_features=64, out_features=32, bias=False)
            (fc_self): Linear(in_features=64, out_features=32, bias=False)
          )
        )
        (pool): MaxPooling()
      )
    )
  )
  (locator): Voter(
    (net): FullyConnected(
      (net): Sequential(
        (0): Linear(in_features=96, out_features=64, bias=True)
        (1): ReLU()
        (2): Linear(in_features=64, out_features=1, bias=True)
      )
    )
  )
  (typeClassifier): Classifier(
    (net): FullyConnected(
      (net): Sequential(
        (0): Linear(in_features=96, out_features=64, bias=True)
        (1): ReLU()
        (2): Linear(in_features=64, out_features=5, bias=True)
      )
    )
  )
)
2025-03-08 10:00:55 [INFO]: Start training for 500 epochs.
2025-03-08 10:00:56 [DEBUG]: con_loss: 2.846, RCA_loss: 2.408, TC_loss: 1.981
2025-03-08 10:00:58 [INFO]: Epoch 0 done. Loss: 6.391, Time per epoch: 2.167[s]
2025-03-08 10:00:58 [DEBUG]: con_loss: 2.850, RCA_loss: 2.255, TC_loss: 1.542
2025-03-08 10:00:58 [INFO]: Epoch 1 done. Loss: 6.096, Time per epoch: 0.711[s]
…
