…
2025-03-08 10:02:37 [INFO]: graph_layers: 2
2025-03-08 10:02:37 [INFO]: linear_hidden: [64]
2025-03-08 10:02:37 [INFO]: lr: 0.001
2025-03-08 10:02:37 [INFO]: weight_decay: 0.0001
2025-03-08 10:02:37 [INFO]: feat_drop: 0
2025-03-08 10:02:37 [INFO]: patience: 10
2025-03-08 10:02:37 [INFO]: ft_num: 7
2025-03-08 10:02:37 [INFO]: aggregator: mean
2025-03-08 10:02:37 [INFO]: MainModel(
  (encoders): ModuleDict(
    (metric): Encoder(
      (graph_encoder): SAGEEncoder(
        (sage_layers): ModuleList(
          (0): SAGEConv(
            (feat_drop): Dropout(p=0, inplace=False)
            (fc_neigh): Linear(in_features=128, out_features=64, bias=False)
            (fc_self): Linear(in_features=128, out_features=64, bias=False)
          )
          (1): SAGEConv(
            (feat_drop): Dropout(p=0, inplace=False)
            (fc_neigh): Linear(in_features=64, out_features=32, bias=False)
            (fc_self): Linear(in_features=64, out_features=32, bias=False)
          )
        )
        (pool): MaxPooling()
      )
    )
    (trace): Encoder(
      (graph_encoder): SAGEEncoder(
        (sage_layers): ModuleList(
          (0): SAGEConv(
            (feat_drop): Dropout(p=0, inplace=False)
            (fc_neigh): Linear(in_features=128, out_features=64, bias=False)
            (fc_self): Linear(in_features=128, out_features=64, bias=False)
          )
          (1): SAGEConv(
            (feat_drop): Dropout(p=0, inplace=False)
            (fc_neigh): Linear(in_features=64, out_features=32, bias=False)
            (fc_self): Linear(in_features=64, out_features=32, bias=False)
          )
        )
        (pool): MaxPooling()
      )
    )
    (log): Encoder(
      (graph_encoder): SAGEEncoder(
        (sage_layers): ModuleList(
          (0): SAGEConv(
            (feat_drop): Dropout(p=0, inplace=False)
            (fc_neigh): Linear(in_features=128, out_features=64, bias=False)
            (fc_self): Linear(in_features=128, out_features=64, bias=False)
          )
          (1): SAGEConv(
            (feat_drop): Dropout(p=0, inplace=False)
            (fc_neigh): Linear(in_features=64, out_features=32, bias=False)
            (fc_self): Linear(in_features=64, out_features=32, bias=False)
          )
        )
        (pool): MaxPooling()
      )
    )
  )
  (locator): Voter(
    (net): FullyConnected(
      (net): Sequential(
        (0): Linear(in_features=96, out_features=64, bias=True)
        (1): ReLU()
        (2): Linear(in_features=64, out_features=1, bias=True)
      )
    )
  )
  (typeClassifier): Classifier(
    (net): FullyConnected(
      (net): Sequential(
        (0): Linear(in_features=96, out_features=64, bias=True)
        (1): ReLU()
        (2): Linear(in_features=64, out_features=7, bias=True)
      )
    )
  )
)
2025-03-08 10:02:37 [INFO]: Start training for 500 epochs.
2025-03-08 10:02:37 [DEBUG]: con_loss: 2.732, RCA_loss: 3.167, TC_loss: 2.665
2025-03-08 10:02:38 [DEBUG]: con_loss: 2.699, RCA_loss: 2.857, TC_loss: 2.156
2025-03-08 10:02:38 [INFO]: Epoch 0 done. Loss: 6.842, Time per epoch: 1.749[s]
2025-03-08 10:02:39 [DEBUG]: con_loss: 2.732, RCA_loss: 2.645, TC_loss: 2.044
…
